…
logistic model, we think the bigrams does not capture significant amout
of additional information relevant to the classification.

### Neural net

*Here is the output of when we run the summary of our model.*

Model: "sequential"
\_\_\_\_\_\_\_\_\_\_\_\_\_\_\_\_\_\_\_\_\_\_\_\_\_\_\_\_\_\_\_\_\_\_\_\_\_\_\_\_\_\_\_\_\_\_\_\_\_\_\_\_\_\_\_\_\_\_\_\_\_\_\_\_\_\_\_\_\_\_\_\_\_\_\_\_\_\_\_\_\_\_\_\_\_\_\_\_\_\_\_\_\_\_\_\_\_\_\_\_\_\_\_\_\_\_\_\_\_\_\_\_\_
Layer (type) Output Shape Param \# Trainable\
=================================================================================================================
text_vectorization_1 (TextVectorization) (None, 34686) 1 Y\
dropout_1 (Dropout) (None, 34686) 0 Y\
dense_2 (Dense) (None, 35) 1214045 Y\
dropout (Dropout) (None, 35) 0 Y\
dense_1 (Dense) (None, 20) 720 Y\
dense (Dense) (None, 1) 21 Y\
activation (Activation) (None, 1) 0 Y\
=================================================================================================================
Total params: 1,214,787 Trainable params: 1,214,786 Non-trainable
params: 1

**Flow Chart**

*Let's create a flow chart to better visualize our model.*

```{r, echo=FALSE}
library(DiagrammeR)
mermaid("
graph TB
  A[Preprocessing Layer TF-IDF n = 34,686]-->|Dropout = 0.3| B[Hidden Layer n = 35]
…
